model/weights/prosody_rnn.pt (torch, 174661 bytes, 10 tensors)

rnn.weight_ih_l0 f4 [192, 2]
00000000: 600f 143d 20b0 c4bb b447 c9bd 80d9 f6ba
00000010: 00b2 b63d e002 713d d655 8dbd f0d3 2f3c
00000020: 68bd cebd 0cf7 72bd 8074 d2bc f040 a3bc
00000030: 4835 333d 646f 20bd 78fe 03bd 3405 61bd
00000040: c498 e03d 70b9 583c c834 c13c 401f c73d
00000050: 9699 de3d dcda d83d 644c ba3d c852 703d
00000060: ece2 e8bd b632 de3d 48c5 063d 86c0 b9bd
00000070: 8401 47bd e0d3 683d 407d 5a3c 2c6c bb3d
00000080: 90ba 793d 6a0b f7bd dce8 8abd 6cff 35bd
00000090: 80b9 d33c 9ac8 ecbd 1c31 74bd 52a1 823d
000000a0: f864 a63c 08a0 e63c beb1 a33d d218 cb3d
000000b0: 608c 8f3c ae63 c23d 606b 723c 8c8a 483d
000000c0: 3c70 62bd a2b9 f3bd 44ee 50bd 0c17 a23d
000000d0: 0032 0c3b 684c ee3c 64ff dabd 121d c8bd
000000e0: 804c 793d 3a5d 8b3d f065 af3d 384e 683d
000000f0: 84b4 143d a89b f8bd f0c9 d2bc 301e 503d
00000100: d28b e83d cc1b 39bd 405a 923d 70d6 f2bd
00000110: 808b 0bbb 1840 0d3d 70da 683d 40ac 53bc
00000120: 007a 6ebd e8e2 e93d 1a92 c03d aafd c2bd
00000130: 6cb8 133d 8600 f2bd 1c25 6ebd 8c1e 8a3d
00000140: 2ccb 26bd 98a2 e7bc 3299 ef3d 5e01 fb3d
00000150: beab 803d 9810 d23d 4e4e e5bd 4e7f bd3d
00000160: 983e c83d 4a64 dd3d c0ae f33d 30bc 00bc
00000170: 8e12 dd3d 2c36 f4bd 34c0 8abd 6277 df3d
00000180: 3656 88bd 8069 0abd 844d 45bd f248 c6bd
00000190: 6cf9 2b3d 58e1 ac3c 74fc 463d 806f 5c3c
000001a0: 608f 4bbc 607c a13d 2682 e73d 225c e33d
000001b0: 48cf 5dbd 9acd 85bd 80de 06bd 4834 a2bd
000001c0: 9061 ebbd f0db 573d 3095 44bc 2425 843d
000001d0: 4433 403d 4836 bbbd 6a4f 973d 4001 50bc
000001e0: 54b7 83bd 1230 f13d 78ac 223d 0000 09b7
000001f0: b05f dabc f099 b0bc 886c bf3c 56f8 ca3d
00000200: 0a34 f33d c6c3 8dbd 80fb 1dbb 3849 023d
00000210: d0e6 d5bc a662 ebbd 8056 5d3c f660 de3d
00000220: 74f6 cc3d b05e 443d 1c35 683d 1c7d 67bd
00000230: c0e1 bdbc a8b0 333d a2ac 8fbd 8024 d83c
00000240: 3031 8fbd 000e 64bb 08bc 2fbd 000a 053c
00000250: 84d0 08bd 542d d03d 1c49 e0bd 8080 283d
00000260: 9041 6c3c 401d 273b e250 8bbd b8be f93d
00000270: f868 b3bd 688b 29bd 4c1b 233d 9263 df3d
00000280: 38cf 32bd 8e2c ed3d c045 5bbb fcd8 54bd
00000290: 8045 c1bd da8c c1bd 02aa cd3d e0ff f9bc
000002a0: 806a 213b 2c54 683d 7059 3ebc ba86 9e3d
000002b0: a692 d23d feb1 c83d 40b6 a03c e02d 96bd
000002c0: d051 733c 3e2b a3bd bc90 36bd 8cf7 4d3d
000002d0: 989b e8bc a009 03bd 7446 f2bd 40ee 12bc
000002e0: e69f cf3d 4e95 99bd 5c7c 5e3d a0aa a63d
000002f0: 28b2 f93d 60f9 523c 58cc f2bd 789d b93c
00000300: 603c a23b 28d5 e6bc a818 06bd ba29 abbd
00000310: 78ab 47bd 3627 f03d a86f e1bd f060 08bd
00000320: 8c08 2b3d a4e0 63bd 484c 7bbd 9247 d93d
00000330: f61f 863d e03e e83c 6a98 b93d 2ee7 9b3d
00000340: ea34 f23d 1ac9 943d 58c8 f8bc 1a93 923d
00000350: c465 1bbd 3ca1 b33d 208f 14bd 10f1 67bc
00000360: 10e3 4bbd 38a5 a1bd 9014 6d3c 26fb a83d
00000370: 28f3 0b3d 0a31 9a3d 4e26 e7bd a48c b63d
00000380: 5847 063d 1837 3f3d 989b 8e3d b427 5cbd
00000390: 9805 00bd 0cf5 de3d 764e a13d e0c2 a23c
000003a0: dcdd fe3d b68e f33d 7ae4 a73d bc46 85bd
000003b0: 7a08 d13d e01b 163d 9054 233c 2e65 82bd
000003c0: 6466 97bd 9c82 81bd ace2 c53d 701a 67bd
000003d0: 3ea5 eb3d 4037 fb3c f021 24bc bc91 acbd
000003e0: 18c5 b3bc 64a3 953d 40aa cb3b 8aaf 81bd
000003f0: 2868 ccbc 8c97 b03d 7e1a c13d 3c5b 7abd
0.036147475 -0.006002441 -0.098281294 -0.0018833131 0.089206696 0.058840632 -0.069011375 0.010731682
-0.1009472 -0.059317634 -0.025690317 -0.019928426 0.043751985 -0.03916873 -0.032225102 -0.054936603
0.10966638 0.0132278055 0.023584738 0.09722757 0.10869138 0.10588619 0.090966016 0.058672696
-0.11371407 0.10849516 0.032902986 -0.09069924 -0.04858543 0.056842685 0.013335526 0.091514915
0.060968935 -0.12062724 -0.06782696 -0.044433042 0.02584529 -0.11561699 -0.059617147 0.06378426
0.020311818 0.02815248 0.07992886 0.099168435 0.01752299 0.09491669 0.014796108 0.048960254
-0.055282816 -0.11900641 -0.051008478 0.07914552 0.0021392107 0.029089168 -0.10693243 -0.0977117
0.06086397 0.06804891 0.08564365 0.05671522 0.036304966 -0.12139064 -0.025731057 0.05081004
0.113547936 -0.045192525 0.0714612 -0.11857307 -0.0021292865 0.034484953 0.056848943 -0.012919486
-0.058221817 0.11420232 0.09402867 -0.09521039 0.03606455 -0.11816506 -0.05814086 0.067441076
-0.040721104 -0.028275773 0.116991416 0.1225612 0.06282757 0.10257071 -0.11196576 0.09252797
0.09777564 0.10810144 0.11898565 -0.007857367 0.10794555 -0.11924395 -0.06774941 0.10911442
-0.066570684 -0.03379202 -0.048169628 -0.09681882 0.041985914 0.021103546 0.0485806 0.013454318
-0.01242432 0.07885051 0.11304121 0.11101557 -0.054152757 -0.06533356 -0.032927036 -0.07920128
-0.11493218 0.052699983 -0.01199846 0.064523965 0.04692389 -0.09141213 0.07388194 -0.0126956105
-0.064314514 0.11776747 0.03971526 -8.165836e-06 -0.026656955 -0.021557778 0.023367181 0.099106476
0.1187516 -0.069221064 -0.0024106205 0.031808108 -0.026111037 -0.11493425 0.013509393 0.108583376
0.10007945 0.047941864 0.056691274 -0.056515798 -0.023178935 0.043869644 -0.07015349 0.026384592
-0.06991804 -0.0034798384 -0.04290393 0.00812006 -0.03340198 0.10164896 -0.109514445 0.041138172
0.014419928 0.0025499612 -0.068025365 0.1219458 -0.087602556 -0.041392714 0.039820954 0.109076634
-0.04365465 0.11580764 -0.0033458322 -0.051964745 -0.09437084 -0.094506934 0.10042192 -0.030517519
0.002463013 0.056720898 -0.011618003 0.07740541 0.10281877 0.09799574 0.019618154 -0.07332969
0.014851049 -0.07967232 -0.044571623 0.050284907 -0.028394505 -0.0319916 -0.11829844 -0.008967936
0.1013792 -0.07499181 0.054317817 0.08138013 0.12192184 0.012876838 -0.11855382 0.022658095
0.004951045 -0.028177813 -0.032738358 -0.08357568 -0.04874751 0.11726229 -0.11007625 -0.03329557
0.041756198 -0.055634156 -0.061352044 0.10609354 0.06549065 0.028350294 0.09062274 0.076124534
0.11826499 0.072649196 -0.030368969 0.07156964 -0.03793885 0.087709874 -0.036269307 -0.014156595
-0.04977709 -0.07892841 0.0144702345 0.08251028 0.03416744 0.07528885 -0.11286603 0.08913544
0.032782882 0.0466834 0.06963271 -0.0537488 -0.031255335 0.10886583 0.07876293 0.019868314
0.1244466 0.11892454 0.08197875 -0.06507632 0.10206695 0.036647677 0.009968892 -0.06366955
-0.07392576 -0.0632374 0.09662375 -0.056421697 0.11506127 0.030665994 -0.010017857 -0.08426234
-0.021944568 0.07306555 0.0062153637 -0.063323095 -0.02495201 0.08622655 0.09428881 -0.061122164

rnn.weight_hh_l0 f4 [192, 64]
00000000: d06e fb3d a0a9 983d a08b e4bb 766c 943d
00000010: 7cd6 17bd 8e53 b13d 2260 f83d 3443 f3bd
00000020: 688a 8b3d 5ced bf3d 90ba 373c 40b8 6bbb
00000030: bc8f 6f3d a04c 723c 7079 35bc 2470 52bd
00000040: 5043 233d 38fe 143d 96cd fc3d d85e be3d
00000050: 0c7a c03d 0c71 713d a6b2 9dbd 8033 503c
00000060: f095 0ebc d4fe 7a3d 3448 f1bd 820a cdbd
00000070: a0c3 c93c de3a 823d f457 1ebd 8e54 f6bd
00000080: 32e9 e23d 308f 583d f41c 8b3d 5c74 663d
00000090: 78a5 7d3d fce7 e9bd e895 97bc f8c4 2a3d
000000a0: be07 d13d 6447 193d f230 8ebd 207b e93c
000000b0: 6e72 b7bd 28f8 90bc 1049 303c f4a7 d13d
000000c0: 542b 533d d064 0abc ac80 70bd 86bd adbd
000000d0: 0812 f83c f267 ef3d 2e54 ad3d feb4 fbbd
000000e0: b20f 803d 4ee6 d5bd 32f3 8abd e049 eabc
000000f0: 6017 ed3d 5276 c4bd d097 c3bd f044 713d
00000100: 145b e7bd b8ee b6bc d038 b33c acaa 6cbd
00000110: 6825 b5bd 7402 50bd 660a 97bd b042 013d
00000120: 8ce1 073d 7cd5 d9bd 74eb 30bd 6218 ee3d
00000130: 0052 eb3c 646b d53d 201a 52bc 10e4 b6bc
00000140: 0031 41bb 1cc8 963d 1817 9abd c04a 323b
00000150: 402e 533b bc5f 96bd f823 a5bd ac80 64bd
00000160: 98d7 e73c fc51 9fbd 2e13 dbbd 8a0b f83d
00000170: 6c64 923d f8c4 f53c d43c 91bd 7a37 fcbd
00000180: d0b7 4e3d 1009 753d 168b babd 0043 d13d
00000190: 3072 4a3c 0002 2bbb 3cad 4bbd 40c3 a2bd
000001a0: 6244 de3d 9c7b 9d3d 48f7 a9bd b435 9abd
000001b0: 80a1 5e3d 608d 52bc 82bb b93d 68a7 c43d
000001c0: 3448 993d 04d9 2b3d 5c10 bb3d c004 a23c
000001d0: c2e5 b63d ee08 ff3d 6071 cdbd 60f2 2b3d
000001e0: 38e2 193d 7eb3 ce3d 94f4 433d f0bd 463c
000001f0: a847 fcbc 5291 b83d c48e a7bd f06a 163c
00000200: 36cc eebd 8041 7d3b e045 503d fc0a 953d
00000210: 3896 bf3d f0f9 6fbd 828f f13d 982b b13c
00000220: 5ead cfbd d896 d9bc 50dd f83d 38ca a23d
00000230: 9239 da3d 3655 e03d 96f8 8dbd 3ac8 8a3d
00000240: 182f f03c c6bc e83d b4df e0bd f0b9 5b3d
00000250: 463b cdbd b4c1 0d3d fe3c c83d 2487 073d
00000260: 082b 8c3c 302c b03c 7849 b23d f438 01bd
00000270: 8a51 c5bd b088 853d e09a 8bbd b07d 1fbd
00000280: 78fa bfbc ec34 1cbd e84c ce3c cea5 f2bd
00000290: b8af debc 1a77 d6bd c272 f3bd 4611 b03d
000002a0: 56ca b73d 7e20 db3d c836 4abd 1037 553c
000002b0: f4c9 cebd 7cb9 76bd acd6 f8bd 1ea5 df3d
000002c0: 1c6e fa3d b800 a2bc 7e60 b0bd 8458 1e3d
000002d0: b858 f4bd 60ef 353c e054 b0bc 00b9 cb3b
000002e0: 3e08 b0bd 5069 3cbc 2606 cd3d 2873 51bd
000002f0: dc07 25bd 6c90 713d b055 b9bd 1056 bf3c
00000300: 72d0 ba3d c051 ffbb e639 a0bd d484 27bd
00000310: 88f7 c5bc fca5 6ebd ec2a 88bd 3866 893c
00000320: e476 53bd 187d 893d 5cfe abbd b00f e33c
00000330: 4622 b9bd 1466 9fbd 0c27 dc3d 40fa aebd
00000340: e0d9 323c 7a9d f8bd d0bc e63c bc7a d83d
00000350: 186f e2bd 4687 ad3d f6d0 b5bd 705f e3bd
00000360: a0c1 ab3c 8cb4 40bd 2824 4fbd be4d b6bd
00000370: 5a18 d2bd 0086 ac3c 345c 1cbd 400b d03d
00000380: d4e0 debd 1ac1 ed3d 48d4 81bd 5278 943d
00000390: a20e a13d 08e8 febc f83c 983d 20e3 453d
000003a0: be01 923d 6e1d bdbd 36c9 90bd d84f a9bc
000003b0: ccb4 243d 00b0 803c 0caf 0d3d 8869 ee3d
000003c0: 82eb c8bd b86b 12bd 3c0f 8bbd 04d5 573d
000003d0: 66cd f3bd 440e c2bd d033 d63c 6022 2f3d
000003e0: c67d 89bd 80ca c73a a434 b6bd 3a05 aebd
000003f0: 6a11 fd3d 702d 003d b885 a13d c871 f7bd
0.12276995 0.074542284 -0.0069746524 0.0724725 -0.037069783 0.08658515 0.12127711 -0.11878052
0.06813508 0.093714446 0.011213914 -0.0035967976 0.058486685 0.014788777 -0.011076316 -0.051376477
0.039859116 0.036375254 0.123439 0.09295434 0.093982786 0.0589457 -0.0770009 0.012707591
-0.00870274 0.06127818 -0.1178135 -0.1001177 0.024629414 0.06358884 -0.038658097 -0.12027846
0.11079635 0.05287093 0.06792632 0.056263313 0.06192538 -0.11421201 -0.018504098 0.04169175
0.10206555 0.0374216 -0.06942929 0.028501093 -0.089573726 -0.017696455 0.010759607 0.10237113
0.051554993 -0.008446887 -0.05871646 -0.08483414 0.030282035 0.11689748 0.084633216 -0.12290381
0.06252994 -0.10444318 -0.06784667 -0.02859968 0.11576724 -0.0959288 -0.0955044 0.058903635
-0.11296669 -0.022330627 0.021877676 -0.057779953 -0.08845025 -0.05078359 -0.0737503 0.03155774
0.033174083 -0.10636422 -0.043193296 0.116257444 0.028725624 0.10420874 -0.0128236115 -0.022325546
-0.002947867 0.073623866 -0.07523936 0.00272052 0.0032223612 -0.07342479 -0.08063501 -0.055786774
0.028301045 -0.07779309 -0.106970176 0.12111576 0.0714806 0.030001149 -0.0709168 -0.12315269
0.050468266 0.059823096 -0.0910856 0.10217857 0.012356326 -0.0026093721 -0.049725756 -0.07947397
0.10852887 0.07689592 -0.08299118 -0.07529774 0.054353237 -0.012851089 0.090689674 0.09602243
0.07484475 0.04195501 0.0913398 0.019777656 0.089305416 0.12452875 -0.1003139 0.041979194
0.037569255 0.10092829 0.04784067 0.012130246 -0.030795887 0.09012093 -0.08181527 0.009180769
-0.11660044 0.0038643777 0.050847888 0.07277486 0.09354824 -0.05858797 0.1179495 0.021627232
-0.10140489 -0.026561186 0.12151587 0.079487264 0.10655512 0.10953753 -0.0693218 0.067764714
0.029319331 0.11364131 -0.10980168 0.05364412 -0.10021071 0.034608558 0.09777258 0.033087865
0.017110363 0.021505445 0.08705419 -0.031548455 -0.09634693 0.06520212 -0.068166494 -0.038938224
-0.023434862 -0.038136408 0.025183156 -0.11848031 -0.027183399 -0.104719356 -0.11887123 0.08597045
0.089741394 0.10699557 -0.04936865 0.013013616 -0.10097113 -0.060235485 -0.121503204 0.109201655
0.12228033 -0.019775733 -0.086121544 0.038658634 -0.11930984 0.011104435 -0.021524847 0.006217122
-0.08595322 -0.011499718 0.10010938 -0.051135212 -0.0402907 0.058975622 -0.09049547 0.023356467
0.09121789 -0.007791728 -0.07823543 -0.04089816 -0.024165884 -0.058263764 -0.06648812 0.016772375
-0.051627055 0.06713313 -0.083981246 0.027717441 -0.0903974 -0.07783142 0.10749635 -0.08543825
0.010916203 -0.12139411 0.028166205 0.10570285 -0.11056346 0.08473067 -0.08877747 -0.11102188
0.020966351 -0.047047183 -0.05057159 -0.08901547 -0.10258551 0.02105999 -0.03817387 0.10158396
-0.10882726 0.11609097 -0.063393176 0.07249512 0.07864119 -0.0311165 0.07433504 0.048312306
0.071292385 -0.09234129 -0.07069628 -0.020667955 0.040211484 0.015708923 0.034590766 0.11641222
-0.098105446 -0.03574726 -0.06790015 0.052693382 -0.11904411 -0.09475377 0.026147753 0.042757392
-0.067134425 0.0015242845 -0.08896759 -0.08497091 0.12356837 0.031293333 0.07886833 -0.12082249

rnn.bias_ih_l0 f4 [192]
00000000: c62b dfbd 7033 00bd a01d 503c 0016 8c3d
00000010: d021 b33c 28c9 e5bd f462 ccbd 1253 ccbd
00000020: 9059 3cbd b03d acbd 70cf 823d e602 e03d
00000030: e6a4 d73d 50b8 93bc ec08 9c3d 1045 d6bd
00000040: a09d 0abd 2488 0abd 704e febc 0083 82bd
00000050: 1efb ebbd 64a1 ef3d 5e39 8ebd 9063 f73d
00000060: 7016 45bc f0e0 acbd c0c3 5dbc 9883 6ebd
00000070: 86dd e7bd 600d 11bc b477 9cbd ec38 45bd
00000080: 1a49 b93d 0a19 dbbd 86b2 cbbd 180c 83bc
00000090: 20ae 933d 9e5b ba3d 3475 c8bd c0b4 c1bd
000000a0: 704b a9bd f637 dcbd 0c5c d6bd 3c6a 293d
000000b0: 5e3c a2bd 0027 7cba 0827 e7bd 189e 153d
000000c0: 7e7d ed3d 0292 96bd 0cd8 f53d e6cb c0bd
000000d0: 7032 22bc c05b ea3c a0e5 a6bb a8a2 46bd
000000e0: 6476 8c3d 58ac 35bd 66ad fc3d 2a76 c43d
000000f0: a030 a8bc 1851 b1bc d6f0 86bd d432 503d
00000100: b8ec 9cbc b005 b73c f8db a13d 8456 1cbd
00000110: 30db 3dbd c838 a3bc de75 85bd c0d4 7f3b
00000120: f84a 443d 4c10 4bbd a086 fe3d 8e57 8dbd
00000130: b0e3 9dbd 98d0 3c3d 8009 50bb 127e bcbd
00000140: 520d ffbd a244 fb3d a248 b3bd 74dd e13d
00000150: ece4 583d fa2a c1bd a805 cfbc 5809 1ebd
00000160: 60c1 65bc 40c0 9c3b 1aa3 80bd 0024 92bc
00000170: 882b 99bc d8b2 5bbd 365e 8e3d 207b 7e3c
00000180: 3040 d3bd 58d4 9ebc 8e28 df3d e0f4 35bc
00000190: d852 133d 9cfa 74bd a4da e1bd a8d3 b3bc
000001a0: 7064 6bbc 967c e83d 1883 733d ea95 b2bd
000001b0: 745a 01bd 80bf 903a 3273 97bd d47b f73d
000001c0: f4ee 07bd fa86 d93d 5845 263d 2626 e23d
000001d0: 98e6 c53d fe50 e9bd 14cf 2c3d d877 3c3d
000001e0: 0215 913d 4c2f 1cbd f8b6 83bd f0c4 0d3d
000001f0: 8816 af3c 7470 ca3d 48c1 e73c bc13 05bd
00000200: 50b0 1d3c 48c5 7fbd 4477 d2bd 2e66 84bd
00000210: d421 38bd 4469 813d baa3 ad3d f809 4bbd
00000220: d86b 303d ec9e fcbd 30de efbc ee44 bf3d
00000230: 4aad a3bd c085 e7bc 68fa 0ebd 4473 4fbd
00000240: 30d7 353d 5824 f0bd 44d1 edbd 0c78 fd3d
00000250: 5813 df3d 0610 df3d 7802 f9bc 602f c5bc
00000260: 54e3 23bd 26e9 f23d b8fd 963c a48a f83d
00000270: 6a51 fabd c081 e33c 3073 04bc 08b7 563d
00000280: ecb1 093d 20e3 9abb ee75 a6bd 46e3 e4bd
00000290: 0cf5 653d 4041 a1bc 30ea 2dbd a60b dfbd
000002a0: 5830 9fbc ee3f e8bd 70c7 8f3d 10e3 803c
000002b0: ca3b 8e3d e057 9abd e43f 823d e858 ff3c
000002c0: c8bd debc 00c5 8a3a a48f 763d 0818 3dbd
000002d0: 407a c23b 6631 c63d fc50 1a3d 1096 eebc
000002e0: 1025 0cbd 60a8 893c c41b db3d 32ac a23d
000002f0: 148e d8bd 2c95 523d 6422 33bd d6c9 853d
-0.10897021 -0.031299055 0.012702376 0.06840134 0.021866709 -0.11220008 -0.09979811 -0.09976782
-0.04598385 -0.084102035 0.06387222 0.10938053 0.10529499 -0.018032223 0.07618889 -0.104623914
-0.03384173 -0.03382124 -0.031043261 -0.063726425 -0.11522506 0.11700705 -0.06944536 0.12079537
-0.012029275 -0.08441341 -0.01353544 -0.058230966 -0.11321549 -0.0088532865 -0.07640019 -0.048149988
0.09047146 -0.10698135 -0.0994616 -0.015996978 0.07210946 0.09099506 -0.0978798 -0.094583035
-0.08266342 -0.10752861 -0.10466775 0.04136108 -0.079216704 -0.00096188486 -0.112867415 0.036527723
0.11596201 -0.073520675 0.12004098 -0.094138905 -0.009899721 0.028608203 -0.0050932914 -0.048494965
0.06858519 -0.044353813 0.123377606 0.095928505 -0.020530999 -0.021645114 -0.065889046 0.050829723
-0.019155845 0.02234158 0.07903284 -0.038168445 -0.04635161 -0.019924536 -0.06516622 0.003903672
0.04792306 -0.04957609 0.124280214 -0.06901465 -0.077094436 0.046097368 -0.0031743944 -0.092037335
-0.124537125 0.1226895 -0.08754088 0.11028567 0.052952692 -0.09432025 -0.025271252 -0.03858313
-0.014023155 0.00478366 -0.06281109 -0.017839432 -0.018697515 -0.053637356 0.06951563 0.015532285
-0.10314977 -0.019388363 0.10896407 -0.011105746 0.035967678 -0.059809312 -0.110280305 -0.021951512
-0.014367208 0.11351888 0.059451193 -0.0872 -0.031580403 0.00110434 -0.07395019 0.12084165
-0.033186868 0.10621448 0.040593475 0.110424325 0.09663123 -0.11392401 0.042189673 0.04601273
0.07084085 -0.038131043 -0.06431383 0.034611642 0.021373048 0.0988473 0.028290406 -0.032489523
0.009624556 -0.062444 -0.10276654 -0.06464802 -0.044954136 0.06318906 0.08478494 -0.049570054
0.043071598 -0.123349994 -0.029280752 0.09339319 -0.07992037 -0.02826202 -0.034906775 -0.050647035
0.044394672 -0.11725682 -0.1161218 0.12376413 0.108923614 0.10891728 -0.030396685 -0.024070442
-0.04001172 0.11860876 0.01843153 0.121358186 -0.1222256 0.02777183 -0.008084103 0.052420646
0.033616945 -0.0047267824 -0.08127962 -0.111761615 0.056141898 -0.019684434 -0.042459667 -0.10890894
-0.019432232 -0.113403186 0.070204616 0.015733272 0.069449976 -0.07536292 0.063598424 0.031170323
-0.027190104 0.0010587275 0.06019558 -0.046165496 0.0059349835 0.09677391 0.03767489 -0.02912429
-0.034215033 0.01680392 0.10698655 0.07943 -0.10573974 0.051411793 -0.04373397 0.06532638

rnn.bias_hh_l0 f4 [192]
00000000: b046 993d e8dd f73c 30b2 f4bc 0025 f6bd
00000010: f0cc e9bd 549c 5b3d f88b e23c 00a4 56b9
00000020: bcbd 32bd 1c60 483d 5846 623d fcea f33d
00000030: 5cb7 8c3d 9440 b83d 3e64 a6bd 606d cdbb
00000040: 58a7 a9bc 44af 5a3d fc68 df3d 6688 acbd
00000050: 9844 8d3c 68d9 e43c b83a dd3d a0c0 453d
00000060: e052 453d 043d 563d 54f1 343d 54bb dc3d
00000070: 1068 d33c 50f3 53bc f078 35bc 4016 343c
00000080: 74b0 6a3d ee54 babd 0408 c8bd e804 f73c
00000090: 6cff 513d e428 37bd dce3 493d 7a29 a1bd
000000a0: 68d8 ce3c f024 e63d 8069 3c3b c496 243d
000000b0: b4be 1e3d 80be cd3a 7683 e93d d687 b3bd
000000c0: d8f8 c33c 50cf 733c 5e0b a93d 00ca d4bd
000000d0: 16c9 b23d aad9 a83d f067 3d3d 6a67 dbbd
000000e0: 944f 83bd 9883 82bd 1405 6c3d 4c36 30bd
000000f0: 004e 953a 24e4 98bd 0c7d b53d e2f8 fabd
00000100: a4cf fd3d 383d c03c 5eda b0bd 1004 28bc
00000110: 362f d2bd 7421 4abd 48e7 91bc 0000 3cbc
00000120: 4886 7fbd 10c6 e2bd d058 603c 5218 f93d
00000130: 008d b13b b83b c3bd 0829 c63d 62a6 9b3d
00000140: 90c9 67bc b8e0 b2bd 80a1 f43c da13 f7bd
00000150: 941d 60bd b6ac d9bd 5a3b cf3d 0040 f93c
00000160: a0fd 173d 08c4 83bd b0b8 20bc d8b2 223d
00000170: 1009 b5bc b692 dcbd f812 803c b4f2 67bd
00000180: 587a e4bd 3e40 e5bd 9058 183d 4004 40bd
00000190: 504c f03d 44a4 55bd 8037 6c3d 3ef8 b83d
000001a0: 183c cd3d c8c4 353d 66e4 8e3d ea1b dabd
000001b0: 20a5 f0bc b82d b33c ec21 51bd 8ada bbbd
000001c0: 12fa d0bd 3ac2 9dbd 1092 f43d 50a3 2fbc
000001d0: 5899 febd d02a a3bc 90da 6a3d b015 5b3d
000001e0: 5c7f 0dbd 5444 0bbd d0c5 c93d 64fa 223d
000001f0: 7c3e 4cbd c84a 36bd 00f0 bdbc 904c 7e3d
00000200: a4d0 82bd 501c 603c 5026 2ebc 207c 733c
00000210: f0d9 7b3c fe7b 9ebd c0d7 973c a274 b6bd
00000220: 364b debd 88c8 8a3d f099 0abd 7088 bfbd
00000230: 4ccb 0c3d 8010 c4bc d09c 013d a070 a53d
00000240: 9c7f 55bd 8ac4 f73d 8c25 9f3d b651 e33d
00000250: 581c d33d e070 7ebc 80ce 2bbc 72d6 9c3d
00000260: 00ae 38bb 000d 9f3d ee43 dfbd 5ef7 fa3d
00000270: 24fc 11bd 3e90 c63d 443c 043d e28d e83d
00000280: d4b8 663d c0a6 443c e665 87bd 307e c73c
00000290: c818 8ebc 4015 3f3c f8ec 053d bcbc b73d
000002a0: 3cfe 883d e853 d3bc 042f b0bd 90ca 67bd
000002b0: 0093 d7bc 8041 60bc 2ce4 20bd 00fb 1b3b
000002c0: a8ac f83d e089 983d 2ccc 8d3d 04b9 983d
000002d0: 34a6 ccbd 0403 4abd 6865 1b3d de96 fc3d
000002e0: 14df 723d 7a5e 98bd 0c59 5e3d 8038 8c3c
000002f0: b0d9 55bc eeb9 d13d 1cc3 e1bd 78d3 c93c
0.07484186 0.03025718 -0.029870123 -0.12018776 -0.11416042 0.053615883 0.027654633 -0.00020469725
-0.043637976 0.048919782 0.055242866 0.11910054 0.068709105 0.08996692 -0.081245884 -0.006269142
-0.020709679 0.053389803 0.10908696 -0.084244534 0.017244622 0.027935699 0.10802215 0.048279405
0.04817474 0.052304283 0.04417546 0.107779175 0.025806457 -0.012936428 -0.011076197 0.010991633
0.057297185 -0.0909823 -0.09767154 0.030153707 0.05126898 -0.04471673 0.04928957 -0.07869239
0.025249675 0.11237514 0.0028749406 0.040182844 0.038756087 0.0015697032 0.11402027 -0.08766143
0.023922369 0.01488097 0.08254121 -0.10390091 0.0872976 0.08244641 0.0462417 -0.10713084
-0.06411663 -0.06372756 0.05762203 -0.04302053 0.0011391044 -0.07465389 0.088617414 -0.12254502
0.1239312 0.023466691 -0.086354 -0.010254875 -0.10262911 -0.04934831 -0.017810479 -0.011474609
-0.06238392 -0.11072934 0.01369305 0.12162842 0.00541842 -0.09532875 0.09675795 0.076000944
-0.014147177 -0.08734268 0.029862165 -0.12064333 -0.054715708 -0.10628645 0.10118742 0.030426025
0.03710711 -0.06433874 -0.009809658 0.03972134 -0.022099048 -0.107701704 0.015634045 -0.056627944
-0.11156148 -0.11193894 0.037193835 -0.046879053 0.117333055 -0.05215861 0.057670116 0.090317234
0.100212276 0.04437712 0.06977157 -0.106498554 -0.029375613 0.021872386 -0.05105774 -0.091725424
-0.10203947 -0.077030614 0.11941922 -0.010720089 -0.12431592 -0.019917876 0.057337344 0.05348748
-0.034545287 -0.03400071 0.09852183 0.039789572 -0.049864277 -0.04450491 -0.02318573 0.062084734
-0.06387451 0.013678625 -0.010629252 0.014861137 0.015371785 -0.077384934 0.018535495 -0.08908965
-0.10854189 0.067765296 -0.033838212 -0.09352195 0.034373567 -0.023933649 0.03164369 0.08078122
-0.05212365 0.12098034 0.077708334 0.110995695 0.103081405 -0.015529841 -0.010486245 0.0765809
-0.0028179884 0.077661514 -0.109016284 0.12254213 -0.03564085 0.09695481 0.032284036 0.11355187
0.05632861 0.012002647 -0.066112325 0.024352163 -0.017345801 0.011662781 0.032696694 0.08971545
0.06689116 -0.025796846 -0.086027175 -0.056589663 -0.026315212 -0.013687491 -0.0392801 0.002380073
0.121423066 0.074481726 0.06923708 0.07457164 -0.09992638 -0.049319282 0.037938505 0.12333463
0.059294775 -0.07439895 0.05428414 0.017116785 -0.013052389 0.102405414 -0.11023542 0.024636969

rnn.weight_ih_l0_reverse f4 [192, 2]
00000000: 2ef3 bbbd 78ac 8fbc 6426 fa3d b8f0 b6bd
00000010: c0ab 603c 58c9 dabd ac88 923d 58c5 d2bd
00000020: 80e6 54bc ce56 94bd 887c 70bd acc9 93bd
00000030: 1ccb 7dbd 4030 c23c 0099 933b 6025 a93d
00000040: 08ab 633d 46b2 cb3d ea3a e93d 72c3 943d
00000050: 8e2c 9b3d 3098 1b3c a62e 93bd 08bb 4fbd
00000060: 4281 a5bd 363c b13d 548c a4bd 7068 08bd
00000070: c015 263b 0260 b5bd 7432 f93d 4a12 83bd
00000080: 746b f5bd bce4 71bd f2fa 9c3d 0c02 363d
00000090: d84b dbbd 8813 f43d c058 84bd 028c a03d
000000a0: 6ace f7bd 2819 99bd dc21 c9bd e89f 0dbd
000000b0: c8f9 343d 8870 8f3d 8c89 5a3d 04f1 ce3d
000000c0: 10c1 e0bd 0034 8bbc 8058 ca3d 8e1b f53d
000000d0: d055 68bd bee8 833d ec2c d9bd 3eb3 8ebd
000000e0: 8479 86bd d054 15bd ec66 803d d4c9 8d3d
000000f0: 88e6 b5bc e6ff e9bd 565d 9abd f4c5 383d
00000100: 58e5 cc3c d008 f13d d88e e2bd 644a b0bd
00000110: e8a3 55bd 1a30 c7bd 38fd e6bd 64a7 68bd
00000120: 00f2 16bb c05a f3bb 70aa e63d 488d 393d
00000130: 8cf1 97bd 8c2b 693d 5c85 ffbd 90d7 e9bc
00000140: 9c6d b1bd c0b8 503b 4888 f2bd 1e8d ea3d
00000150: b054 0ebd d44b dc3d cc2b 0bbd 2af3 c33d
00000160: 1845 f9bd feda e73d 00b1 c23b 88f4 96bd
00000170: 3eb2 fbbd de75 9d3d 8489 2abd 9092 b53d
00000180: 08d1 9c3d b013 d83d 70c7 6a3d 6a8f fcbd
00000190: 3c0f dbbd b035 913d 5036 163c 706a 6dbc
000001a0: 682c 1dbd baf3 f43d d01f c3bd 4c8f 073d
000001b0: 9058 6c3d b011 113c c46c c63d 6caa 7d3d
000001c0: fc98 d2bd 1cfd ea3d f801 063d 0054 a13c
000001d0: b496 843d 788b 0fbd 809f 713b 92ab c33d
000001e0: 00a3 fbbc 96ac 8a3d a8a0 2e3d ccca 9cbd
000001f0: 9003 bbbc 545e 973d 502b 9ebc 52b2 aebd
00000200: d0fc 41bd fc0e f2bd b0da 1fbc d2fa bc3d
00000210: 084d bb3c 1001 3abd 8074 d4bc d08e 4e3c
00000220: 4c8c 013d 5caf 34bd 80cb c93a 00f2 bd3c
00000230: 143f f43d 4cb0 583d 4c94 2f3d a046 353d
00000240: e05f ef3d 0053 693b 74e2 a73d 9ce9 69bd
00000250: 98c4 5fbd 18e3 c8bc b849 e4bc 8015 44bc
00000260: 04d1 113d 8416 a7bd b006 e43c ea67 babd
00000270: 2655 efbd 98d8 493d 2ce6 92bd f254 b73d
00000280: a669 87bd f891 a83d 8018 31bb d6e3 d33d
00000290: f09b c73d ec61 b3bd a439 33bd 7e71 81bd
000002a0: 10b1 40bd 5041 d0bc b61a e3bd 9011 72bd
000002b0: 40ae 223b 8818 d93d 540d f43d 2880 37bd
000002c0: 4059 0dbc d437 4dbd 48fc 9f3d 4045 8fbd
000002d0: 6892 d9bd 54d0 67bd 5ad0 fcbd 8009 85bd
000002e0: 9280 fa3d 2816 9ebc a2f5 c43d 569f e33d
000002f0: 0076 8e3a d271 f8bd 4ef2 9dbd 840f c1bd
00000300: 60f3 25bd 64bb 7abd 60d7 efbd 5e33 cc3d
00000310: 6a88 b0bd 9e8f e8bd 40e5 4f3b 980f d3bd
00000320: 3849 afbc 9069 573c 78d5 893c d80c e0bc
00000330: d4ee 83bd 146e bb3d a012 3bbd 7430 3dbd
00000340: 00c0 b8bc fc58 49bd ea06 ebbd dc80 e0bd
00000350: 9454 1b3d 90b6 5dbc 1c5b b63d b86d ab3d
00000360: fca9 5dbd 3ca7 e4bd a8ee 6abd 804d f7ba
00000370: 44f6 1bbd 5038 2a3d 4697 ec3d f847 213d
00000380: 889a a2bd c07f 97bd 9e54 be3d 841e d73d
00000390: d80f f2bd c89a f33c 80c3 1cbc 5010 95bc
000003a0: 70e7 363d 3471 5e3d 70fb 9cbc e085 27bc
000003b0: 665c e5bd 4a54 d43d b0c2 5dbc b036 a63d
000003c0: 1a95 9c3d 4091 a83d 8e34 93bd e846 c9bd
000003d0: a691 b4bd 744d 903d b82b b9bc 2043 fabb
000003e0: 8a53 ae3d 2438 4dbd 68d3 d7bc 5812 ae3d
000003f0: f064 d4bc c8fb f1bc a663 f13d 0e02 be3d
-0.09177242 -0.017538294 0.12214354 -0.08932632 0.013712823 -0.106829345 0.07154974 -0.102915466
-0.012994409 -0.07243119 -0.058712512 -0.072162 -0.06196128 0.023704648 0.004504323 0.08259082
0.05558303 0.09946112 0.1138819 0.07263841 0.075768575 0.009496734 -0.07186632 -0.050715476
-0.080812946 0.086540624 -0.08034578 -0.033302724 0.0025342554 -0.08856203 0.12167826 -0.06399973
-0.11983386 -0.05905603 0.076650515 0.044435546 -0.107078254 0.11917788 -0.0646224 0.07839204
-0.12099917 -0.07475501 -0.09820911 -0.034576327 0.044183522 0.070038855 0.05335383 0.10104564
-0.10974324 -0.016992569 0.09880161 0.11968146 -0.056722462 0.064408764 -0.10604271 -0.069677815
-0.06566146 -0.036457837 0.06269631 0.06923261 -0.022204652 -0.11425762 -0.07537334 0.045110658
0.025011703 0.11769259 -0.110624015 -0.08607939 -0.052158266 -0.097259715 -0.112787664 -0.05680026
-0.0023032427 -0.0074265897 0.11262977 0.045300752 -0.07419118 0.056926295 -0.12476608 -0.028545171
-0.086634845 0.00318484 -0.118424 0.11452697 -0.034748733 0.107566506 -0.033977315 0.09567864
-0.12171382 0.11321066 0.00594151 -0.073708594 -0.122898564 0.07688497 -0.04163505 0.08865845
0.07657057 0.1055063 0.057319105 -0.123320416 -0.10696265 0.07090318 0.009168223 -0.014490709
-0.038372427 0.1196055 -0.09527552 0.033095643 0.057701647 0.008854315 0.09688714 0.061930105
-0.10283086 0.11474058 0.03271672 0.019693375 0.06474057 -0.035045117 0.003686875 0.09554209
-0.030717373 0.067711994 0.042633682 -0.07655868 -0.022828847 0.073910385 -0.019307762 -0.08530106
-0.04736024 -0.11819264 -0.009756729 0.09227528 0.02286388 -0.04541117 -0.025934458 0.012607291
0.03162794 -0.04411255 0.0015395731 0.023186684 0.11926094 0.052902505 0.042866036 0.044256806
0.116882086 0.003560245 0.081974894 -0.057107553 -0.054630846 -0.02452235 -0.027867183 -0.011968017
0.035599723 -0.081585914 0.02783522 -0.09101851 -0.11686163 0.049278826 -0.07172808 0.08951749
-0.06611948 0.08230966 -0.002702266 0.10346191 0.097465396 -0.087589115 -0.043756142 -0.06320475
-0.04704386 -0.025421768 -0.11089079 -0.05909878 0.00248231 0.10600382 0.11916605 -0.044799954
-0.008627236 -0.05010207 0.07811791 -0.0699563 -0.10623628 -0.05659516 -0.123444274 -0.064959526
0.12231554 -0.019297674 0.09617163 0.11114375 0.0010868907 -0.121310845 -0.077122316 -0.094267875
-0.040515304 -0.061213866 -0.117110014 0.09970735 -0.08619769 -0.11355518 0.0031722337 -0.10305709
-0.021397218 0.013147727 0.016825423 -0.027349874 -0.06442037 0.09151855 -0.04567206 -0.046188787
-0.02255249 -0.049157128 -0.11475928 -0.10962078 0.037922457 -0.013532296 0.089040965 0.083705366
-0.054117188 -0.1116471 -0.057356507 -0.0018867701 -0.038076654 0.04155761 0.115522906 0.039375275
-0.07939631 -0.07397413 0.09293483 0.10503867 -0.11819428 0.029736891 -0.009568095 -0.018196255
0.04465431 0.054307178 -0.019162863 -0.010224789 -0.11199264 0.10367639 -0.013535187 0.081158996
0.07645626 0.08230829 -0.071877584 -0.098279774 -0.08816843 0.07046023 -0.022603855 -0.0076373965
0.085120276 -0.050102368 -0.026345924 0.084995925 -0.025927037 -0.029539004 0.117865846 0.09277736

rnn.weight_hh_l0_reverse f4 [192, 64]
00000000: 76f6 9dbd 2073 863c 6405 2a3d 3015 b9bd
00000010: 180c bbbd 5804 853d 9ed3 c23d 90ed 953c
00000020: 46d6 f83d ee29 e83d b0f5 83bc 3ec1 a6bd
00000030: 3841 dabc 40b7 df3c e814 e9bc ce12 ffbd
00000040: e0f9 d53d 8850 b3bd bc91 303d 18ea 943c
00000050: 5475 453d b89a df3d 60f6 3f3d f0fb 59bd
00000060: ec3c 513d d8b7 92bc 0880 9f3c d07c cf3c
00000070: 40a6 08bd a837 aa3d a02a 78bc a458 8c3d
00000080: 804f 333d 8ea9 86bd 72ed e53d 2805 50bd
00000090: b065 fabc cc0c a8bd 0036 f53a fceb 11bd
000000a0: e028 d5bb 0e95 b83d 60e3 afbc 9071 7d3c
000000b0: b03f f7bd dc25 52bd 20cf 9cbb 404d 903c
000000c0: 8e02 f63d 808e c13a 5051 76bc cc36 9ebd
000000d0: 98e3 0a3d 18f0 ecbc ca06 8fbd d050 603c
000000e0: c0f2 f23d e05e 483c 348d 523d 54dc 0dbd
000000f0: 80bc 1bbd 90a0 a9bd c692 a1bd 86a9 aabd
00000100: ac66 2cbd 00ff 243b d0a4 ffbc 4083 893c
00000110: 00b0 fe3b 7af9 fd3d c467 dfbd 9a14 963d
00000120: 0c3f 20bd be65 e03d a887 f8bd 6e28 973d
00000130: a606 c73d 4825 62bd e0b2 f5bc 80a1 e33c
00000140: 5253 fd3d ec48 71bd 9679 9f3d 483d 88bc
00000150: c0bf 9b3c c2fa 86bd 1443 3a3d daee a6bd
00000160: 2807 1d3d 944e 9a3d e0e9 c5bc ca49 fbbd
00000170: b02f a2bd 90f9 26bd c88c c9bc b858 393d
00000180: 1cb1 d63d 7a1e a63d 9081 4cbc b04c 90bc
00000190: 229d 893d 9420 da3d 60e9 b3bd b0d6 c2bc
000001a0: f824 ccbc f891 eabd 942b 353d 70fa 68bc
000001b0: 5ccd e63d b07f c93d 44b7 233d be74 d6bd
000001c0: 203e bd3c 90c2 883c 4c77 9b3d 5049 6b3d
000001d0: 3c72 aa3d 04eb 793d 0c4f 6e3d 5c63 f93d
000001e0: 9cfc 87bd 5c7e 203d 1e9f 82bd 7e56 e3bd
000001f0: 8010 1a3d 1ce8 5f3d fcb2 25bd 208e ebbc
00000200: 2a51 d9bd 104d c7bc 60ef 1e3c 1031 e9bd
00000210: 42ba ef3d f08d e93c 88b4 883c d4bd 4f3d
00000220: 8090 7bbb 44f7 1b3d d4e9 6b3d c066 27bc
00000230: ca2f eb3d 98e8 e33c c056 d5bb 022d a33d
00000240: 9e24 bf3d c0bc 093b 8ade 97bd a0e6 663d
00000250: 405f d0bc 9643 bb3d e40d 6cbd b07b ff3d
00000260: 8ef6 8bbd 64e7 c63d 48b5 863c 6658 b8bd
00000270: 2c57 65bd 5cac 3dbd 68e5 7ebd d093 aabc
00000280: 90c2 97bc cc1d 65bd faae a5bd 884e 19bd
00000290: f030 80bd c61c d93d 10da d9bd 902a a33c
000002a0: 38cf 0ebd 5407 bd3d 6233 e43d 007e 2b3c
000002b0: 563a fd3d f02c 1fbc 5c2a c33d 1cdd 8f3d
000002c0: d237 c3bd 00dc 633b ee9c dd3d b06b 313c
000002d0: b032 6b3d 7a96 8bbd 90df 56bc e0c2 67bc
000002e0: 9c30 ea3d 8012 dfba f072 a3bc f056 0dbd
000002f0: 46ef a33d ecc2 57bd a039 593c da27 e0bd
00000300: c0ce 7ebc b0de c3bd a0d1 91bb 4aec e53d
00000310: f0ac 4cbc 309a b1bd 68b0 9b3c ba97 e5bd
00000320: 10e6 e6bc fc40 1e3d 805d e43d 30ea 92bd
00000330: 64a4 7d3d 966d d9bd b8ae a9bd ce7d b53d
00000340: d86e a23c 0003 693d c6fb e3bd 8edb c23d
00000350: e09e 1abc 8c94 ea3d c6b0 af3d 6c2e 1b3d
00000360: e09b 64bc ca31 f8bd 00d0 993a 5436 033d
00000370: 0253 9fbd 264a b0bd fa56 913d b4a6 403d
00000380: 0083 0b3d c0fe 183c f658 b03d c017 1e3d
00000390: 1e94 c1bd e612 c0bd 30bb 93bc e41b c7bd
000003a0: 0a4e fbbd 348b d33d 18af eabc bc6a bd3d
000003b0: 7096 d9bd 3046 38bd 382e 29bd 56a3 903d
000003c0: 001f 89bc c0f7 5c3d 2ea0 86bd ac36 7dbd
000003d0: 42ac a6bd 90fd f0bc 6c58 d4bd da92 f6bd
000003e0: ba6c 803d 0a35 8e3d 1cc6 383d c0f2 6c3b
000003f0: ae9d f13d 12f2 883d 0469 e13d c45d 153d
-0.07713024 0.016412318 0.041509047 -0.09037244 -0.09133166 0.06494969 0.09513019 0.018301755
0.121502444 0.113361225 -0.016108364 -0.08142327 -0.026642427 0.02730906 -0.028452352 -0.124547586
0.104480505 -0.087555945 0.043107733 0.01817803 0.048207596 0.10918182 0.04686582 -0.053218782
0.05108349 -0.01790993 0.01947023 0.02532807 -0.033361673 0.08311397 -0.015146881 0.06852844
0.04377699 -0.06575309 0.1122693 -0.050786167 -0.030566067 -0.08205566 0.001870811 -0.035625443
-0.006505117 0.09012805 -0.021470726 0.01546897 -0.12072694 -0.051305637 -0.0047854334 0.01761496
0.12012206 0.00147672 -0.015034035 -0.077252954 0.033908457 -0.02892308 -0.06983717 0.013691142
0.11862707 0.012229651 0.051404193 -0.03463395 -0.038021564 -0.08282578 -0.07889323 -0.08333115
-0.042090103 0.0025176406 -0.031206518 0.016786218 0.0077724457 0.124010995 -0.109084636 0.07328148
-0.039122626 0.10956906 -0.121352494 0.07380758 0.09718065 -0.055211335 -0.02999252 0.02778697
0.12369408 -0.058907434 0.077868626 -0.016630784 0.019012332 -0.06590797 0.045474127 -0.08151026
0.038336903 0.07534519 -0.024159372 -0.122699335 -0.07919252 -0.040765345 -0.024603263 0.045250624
0.10483 0.08111282 -0.012482062 -0.017614692 0.06719424 0.10650745 -0.08784747 -0.023784012
-0.024919972 -0.114536226 0.044231012 -0.014219865 0.11269638 0.098388076 0.039969698 -0.104714856
0.023100913 0.016694337 0.075911134 0.057442963 0.0832257 0.061015144 0.058180854 0.121771544
-0.06639978 0.039183006 -0.063780054 -0.111004815 0.037613392 0.054664716 -0.040453896 -0.028754294
-0.10611184 -0.024328738 0.009700626 -0.11386311 0.11705448 0.028510064 0.016687647 0.050718144
-0.003838569 0.038077608 0.057596043 -0.010217369 0.114837244 0.02782087 -0.0065105855 0.07967569
0.09333156 0.0021017045 -0.07415493 0.056372285 -0.025436044 0.0914375 -0.057630435 0.124747634
-0.06834136 0.09712103 0.016443864 -0.09001236 -0.055991337 -0.046306953 -0.062230498 -0.020822436
-0.018525392 -0.05593662 -0.08090015 -0.03742841 -0.06259334 0.10601191 -0.10637295 0.019917756
-0.034865588 0.09229913 0.11142613 0.010467052 0.12364642 -0.009715304 0.09529564 0.07024595
-0.09532131 0.0034768581 0.108209476 0.010828897 0.057421386 -0.068158105 -0.013114825 -0.014145583
0.11435053 -0.0017019063 -0.019952267 -0.03450674 0.08004622 -0.052676126 0.013258368 -0.10945101
-0.015552223 -0.09563959 -0.004450038 0.11226709 -0.012492403 -0.08671987 0.019005015 -0.1121058
-0.028185874 0.038636193 0.11150646 -0.07173574 0.061924353 -0.10616605 -0.08285278 0.08861886
0.019828245 0.056887627 -0.11132006 0.09514533 -0.009437293 0.11454114 0.08578639 0.03788607
-0.013953179 -0.121188715 0.0011734962 0.032034233 -0.07779504 -0.08607893 0.070966676 0.04703398
0.03406048 0.009338081 0.08610718 0.03859687 -0.09452079 -0.093786046 -0.018033594 -0.097221166
-0.12270744 0.10329285 -0.028647944 0.092488736 -0.10624397 -0.04498881 -0.041303843 0.07062404
-0.016738415 0.05394721 -0.065735206 -0.061819717 -0.08138324 -0.029417783 -0.10368428 -0.120397285
0.06270738 0.0694371 0.045110807 0.0036155432 0.11797653 0.06686796 0.11006358 0.036466375

rnn.bias_ih_l0_reverse f4 [192]
00000000: faec b4bd 64f6 16bd 0203 d73d f20e aa3d
00000010: b2d4 bcbd 1a01 c03d 384d 95bd a84e 5dbd
00000020: 304f 453c 82d3 b1bd b2ef 90bd 7003 f23d
00000030: 340c 933d b62b aebd 88e0 b23d fc64 29bd
00000040: 90ea 703d e0e5 fb3c 96b9 9b3d 7411 41bd
00000050: f02c ffbd e4c6 e4bd 0cd8 bb3d f0ef 053d
00000060: c85e 21bd 5eba d6bd 22d7 fb3d 48d1 cebc
00000070: f06e 243c 9821 cc3c 502b f93c 102f f23c
00000080: 2c1d 2cbd 1658 cc3d b08a f4bc 3e5f e53d
00000090: 7e98 afbd 363b b03d f8b6 fd3c e626 ffbd
000000a0: d4aa 0d3d 90c6 48bc 98c7 b9bc 006d ef3c
000000b0: 9c9b c0bd f2ad d83d 0c8d 34bd 40e4 ca3d
000000c0: 62be e5bd 38f9 9abd d0d6 4f3d 40d0 dabc
000000d0: 00fb 023a 687c afbd 4807 9fbc 8c75 99bd
000000e0: a4ab ef3d d02a 25bd b062 a83d d051 143c
000000f0: d06d e03d 76c3 c93d 82dd b03d 187c b63d
00000100: 38b3 76bd 10aa 2b3d fcd2 9cbd e04b 483d
00000110: e8d4 98bd 309b 33bc d2f9 aabd b8fa d0bd
00000120: 8002 84bc e02f 38bc 4494 04bd e02b ff3c
00000130: 4cf1 94bd 50e5 4ebc 6c31 993d c89a a7bd
00000140: 90f3 a1bc e61d c8bd ac21 dbbd 08bf c63c
00000150: a0f2 af3b 506e 523c 904c febd 587d a1bd
00000160: 4c39 e13d f653 85bd 2c99 23bd 081c 8ebc
00000170: b401 76bd f2db c63d 6280 f1bd d415 d7bd
00000180: 58d0 babd 7a8d a2bd c0fa 7f3b 6cf1 2b3d
00000190: 42a1 f53d 749c d73d 622c eb3d 4071 373c
000001a0: 5034 1d3d c8cc 883d 2020 543c 804f c3bc
000001b0: 60fd 1cbd 2646 d6bd 188a 3ebd 20d7 443d
000001c0: e06f fabd a81d 56bd c8e5 91bc 1489 8bbd
000001d0: 1092 623c 9cb6 e93d f230 e33d 38f2 3b3d
000001e0: b820 0abd 44eb ab3d 2857 cd3c 7c65 ce3d
000001f0: a88d c5bc 36ba e8bd a004 fcbb e426 8ebd
00000200: 924b cf3d bc89 bc3d d0a8 b73c 58a9 863c
00000210: 50ea 2e3c c064 2f3c f80f 8fbc 3036 ce3c
00000220: 94ec 90bd 2ce4 b93d 802f 3bbc 986d 363d
00000230: a866 16bd 5e50 a2bd a8bf e2bd 0063 ef3b
00000240: 8057 cdbb 1831 a33c b870 e73c 3c69 a33d
00000250: a4d2 f8bd 342e 86bd 3aa1 a73d b0e0 5cbc
00000260: b6e8 f73d 9826 b73c b8cd f53c e006 a2bd
00000270: d056 153d d014 063d 0873 76bd 1c94 40bd
00000280: 646b fdbd 24c4 b0bd d22b c8bd 409d 9dbb
00000290: c20f ebbd 0040 7cb7 d0e5 23bd 885d 973c
000002a0: a07c 77bc 9047 89bd 90ef ddbc 6c6e 083d
000002b0: ea42 ec3d a4c3 4a3d a451 c5bd 4c71 a2bd
000002c0: fab6 8b3d 40ab f9bb 7ef8 ce3d f83f f13c
000002d0: b8b7 8cbc 50ae 163d 3c81 173d 7a8e d73d
000002e0: 381b ec3c a017 a8bc c038 9cbc c0e0 55bd
000002f0: b8b7 89bd a048 98bd 0097 72ba 3c42 83bd
-0.08834262 -0.03685607 0.104986206 0.08303632 -0.09220256 0.0937521 -0.07290119 -0.05403009
0.012042806 -0.0868292 -0.07076968 0.11817062 0.07180062 -0.08504431 0.08734232 -0.04135607
0.058817446 0.030749261 0.07603757 -0.047135785 -0.12459743 -0.11170748 0.09172067 0.032699525
-0.03939703 -0.104847655 0.12296893 -0.025246277 0.010036215 0.024918362 0.03041616 0.029563457
-0.042020008 0.099777386 -0.029851288 0.11199807 -0.085740075 0.086050436 0.030971035 -0.12458591
0.034586743 -0.012254372 -0.022678182 0.02922678 -0.0940468 0.105800524 -0.044079825 0.099068165
-0.11217953 -0.07567066 0.05074197 -0.02671063 0.00049965084 -0.085686505 -0.019412652 -0.074931234
0.1170266 -0.040324032 0.08221948 0.009052709 0.10958445 0.09851734 0.08635999 0.08910388
-0.06022951 0.04191023 -0.076574296 0.048900485 -0.07462484 -0.010962293 -0.08348431 -0.10204071
-0.016114473 -0.011241883 -0.03236796 0.03114885 -0.07272586 -0.012627915 0.074801296 -0.08183819
-0.01976946 -0.09771328 -0.10699782 0.024261013 0.0053694993 0.012843683 -0.12416947 -0.078852355
0.10997257 -0.06510155 -0.039940998 -0.01734735 -0.060060218 0.0970992 -0.11792065 -0.1050221
-0.0912177 -0.07937141 0.003905937 0.041978285 0.11993648 0.10527888 0.11483075 0.0111964345
0.038379967 0.06679684 0.012947112 -0.02384162 -0.038327575 -0.104625985 -0.046518415 0.04805672
-0.1222837 -0.052274376 -0.017809764 -0.06813255 0.013828769 0.11411783 0.1109332 0.045885295
-0.03372261 0.08394483 0.025065973 0.1007795 -0.024115399 -0.11363642 -0.007690981 -0.069410115
0.10121836 0.09205958 0.022419363 0.016438171 0.010675982 0.010705173 -0.01746367 0.025172323
-0.07076374 0.090767235 -0.011424899 0.04453811 -0.036718994 -0.07925485 -0.11071712 0.007305503
-0.0062665343 0.01992087 0.02825199 0.07979056 -0.121495515 -0.06551781 0.081850484 -0.013481304
0.12104933 0.02235727 0.03000532 -0.079114676 0.036459744 0.032734692 -0.060168296 -0.047016248
-0.12373999 -0.08631161 -0.09773983 -0.0048100054 -0.11477615 -1.5035272e-05 -0.04001409 0.018477216
-0.0151053965 -0.067031026 -0.027091771 0.03330843 0.115362 0.049502984 -0.09634712 -0.07931766
0.068220094 -0.0076192915 0.1010599 0.029449448 -0.017177448 0.03678733 0.036988482 0.10525222
0.028821573 -0.020519078 -0.01907003 -0.05221629 -0.06724495 -0.07435727 -0.0009254068 -0.064091176

rnn.bias_hh_l0_reverse f4 [192]
00000000: 8814 413d 20c8 c8bb d639 d53d a88a 113d
00000010: e41c b0bd 8afd e8bd 5a09 c6bd 2e41 9a3d
00000020: 48d3 ffbd ac42 dfbd 48ca f43c 84b3 503d
00000030: a897 883d 58b5 043d 261f e8bd 3836 593d
00000040: baeb 913d fc6e f3bd a0ba bf3d 40d3 7cbb
00000050: 306b 8dbc 18d9 a6bd ba99 99bd 4ab9 a1bd
00000060: 1eb5 89bd 403b 333b 2059 4bbd 8ab7 e1bd
00000070: 7a30 8fbd 00e8 9038 0086 013d 90bf 913d
00000080: 5ce5 413d f033 24bc 6898 263d 2c2b d33d
00000090: 2c91 96bd f469 73bd 5e75 863d 705e 82bd
000000a0: 4437 053d 98e0 54bd 4c69 043d 4802 70bd
000000b0: 002b d7ba 86ba a63d cc74 f8bd 887b 793d
000000c0: 1232 d5bd 5092 e63d 00ee 793b 2883 333d
000000d0: 04f0 79bd 0864 92bc 3604 e6bd c075 5fbb
000000e0: 385e 46bd 42e1 c5bd e078 fcbd 109a ab3d
000000f0: 6807 b73d 6080 693c fada e9bd ecfc 853d
00000100: 3481 d7bd ea46 fabd 9018 f03c 141c 0e3d
00000110: 10ed 2f3c b87e 8a3d 4022 60bc 8485 3a3d
00000120: 426d a83d 68fa c23c 30ac ab3d 2e8d c0bd
00000130: 709e 3e3d eca2 2d3d f621 8f3d 583b 65bd
00000140: aa74 e0bd 3264 b43d 6c73 1a3d 46d8 d7bd
00000150: 4024 20bc 501c 19bc 3042 c9bc 50e5 7abc
00000160: 6056 f43b 7cb4 febd 8ce7 193d 601b 063c
00000170: 6c0a 113d 7034 c9bc d87c c73c 9c76 4bbd
00000180: 945d d43d 24f9 5e3d 9827 94bd 30a9 fdbd
00000190: b8da dc3d dc35 7f3d 4a32 e23d b8d1 89bd
000001a0: 945f d6bd 286b bfbc 80ec 823a e00a 2f3d
000001b0: c894 513d 34ef f1bd 6036 2c3c f81c 703d
000001c0: 8043 80bd f689 b4bd 689d edbd ea45 bf3d
000001d0: 10a8 fdbc 7821 56bd a062 dfbd ac14 be3d
000001e0: a89c 9fbd 0e6a dfbd b856 50bd a28f 833d
000001f0: 6477 63bd 4c5a c8bd d0be 783c aad5 ec3d
00000200: 0e67 8f3d 5c17 373d 8402 353d 401e 983b
00000210: 2c90 24bd a85b fd3d 204a ebbd 9880 653d
00000220: 441f d53d c2f7 f4bd b858 0bbd d0c2 353c
00000230: 04df 8c3d 14d2 8fbd 90c2 d43d 1c84 a83d
00000240: 22ae b23d 605d 75bc 989d f0bc a6ac b93d
00000250: 9032 b9bd f09c 89bc ccf5 de3d f0f2 003c
00000260: 40b3 a5bb 5897 47bd 24a3 fb3d 50e5 713d
00000270: 34b7 72bd c28f 9e3d ee73 b0bd 9828 a23d
00000280: e224 f4bd 081b b9bc a8ab a3bd 8010 613c
00000290: feeb eabd e450 363d d4fe e2bd 46d3 99bd
000002a0: e268 fdbd ac3c 6f3d d8aa f93c 6c8d 62bd
000002b0: 32cb 98bd a2ee fb3d 28a8 e03d 1a13 b83d
000002c0: 0c1e c43d c686 a9bd 54df 1c3d f4f5 a4bd
000002d0: 005a b9b9 2484 873d 2006 3bbc 004e e0bd
000002e0: 4e6e 95bd 48b2 08bd c04d 423d 1896 f23c
000002f0: aecd a73d 70aa 983c d0f8 cdbd 8ec0 d2bd
0.04713872 -0.0061273724 0.10411422 0.035532624 -0.085992604 -0.11376484 -0.096697524 0.07531963
-0.124914706 -0.109013885 0.029881611 0.05095245 0.06669551 0.032399505 -0.11334066 0.053030223
0.071250394 -0.11886403 0.09361768 -0.0038578063 -0.017263025 -0.08146876 -0.07500024 -0.07896669
-0.067239985 0.0027348548 -0.049645543 -0.110213354 -0.06991668 6.9096684e-05 0.031621933 0.07116616
0.047337875 -0.0100221485 0.04067269 0.10310969 -0.07351908 -0.059427217 0.06565355 -0.06365669
0.03252341 -0.051972 0.03232698 -0.058595926 -0.0016416013 0.08141045 -0.12131652 0.060908824
-0.10409941 0.11258376 0.0038136244 0.043826252 -0.061019912 -0.017869964 -0.11231272 -0.0034097284
-0.048429698 -0.09662105 -0.123277426 0.083789945 0.089369595 0.014251798 -0.114187196 0.06542382
-0.105226904 -0.12220557 0.029308587 0.034694746 0.010737672 0.06762451 -0.013680041 0.045537487
0.08223964 0.023801044 0.083824515 -0.09401928 0.046537817 0.042391703 0.069888994 -0.055964798
-0.10959752 0.08808173 0.03770773 -0.10539298 -0.009774268 -0.009345129 -0.024567693 -0.015313461
0.0074565858 -0.124367684 0.037574336 0.008185238 0.03541033 -0.024561137 0.024351522 -0.04967366
0.10369411 0.054436818 -0.072341144 -0.123857856 0.10783905 0.062307224 0.11044748 -0.06729454
-0.10467449 -0.023366526 0.0009988695 0.04273498 0.05116728 -0.118132025 0.010511011 0.058621377
-0.062628746 -0.088153765 -0.116022885 0.09339507 -0.030963928 -0.052278012 -0.10907483 0.092812866
-0.07793552 -0.109089 -0.05086395 0.0642388 -0.05553378 -0.09782848 0.015182212 0.11564191
0.07002078 0.04470001 0.044191852 0.004642278 -0.040176556 0.12370998 -0.114887476 0.05603084
0.10406354 -0.119613186 -0.034020156 0.01109381 0.06878474 -0.07022491 0.10388672 0.08228323
0.087246194 -0.014975876 -0.029372022 0.09066133 -0.09042847 -0.016798466 0.10886726 0.007870421
-0.0050567687 -0.048728317 0.12286976 0.05905658 -0.059256747 0.077422634 -0.08615862 0.07917899
-0.11921097 -0.022595897 -0.07991725 0.013736844 -0.11470793 0.044510737 -0.11083761 -0.07511
-0.123735204 0.05840747 0.030476972 -0.05531065 -0.074606314 0.12301375 0.10969573 0.08988018
0.095760435 -0.08277659 0.03829892 -0.08054724 -0.00035353005 0.06617001 -0.0114150345 -0.10952377
-0.072964296 -0.033373147 0.04743743 0.029612586 0.08193527 0.018635958 -0.10057223 -0.10290633
